…
2022-06-29 09:47:17.921264: I tensorflow/core/common_runtime/gpu/gpu_device.cc:1418] Created TensorFlow device (/job:localhost/replica:0/task:0/device:GPU:0 with 22318 MB memory) -> physical GPU (device: 0, name: NVIDIA GeForce RTX 3090, pci bus id: 0000:4f:00.0, compute capability: 8.6)
Training for a new UNet model:
Model: "model"
__________________________________________________________________________________________________
Layer (type)                    Output Shape         Param #     Connected to                     
==================================================================================================
input_1 (InputLayer)            [(None, 256, 192, 1) 0                                            
__________________________________________________________________________________________________
conv2d (Conv2D)                 (None, 256, 192, 64) 640         input_1[0][0]                    
__________________________________________________________________________________________________
leaky_re_lu (LeakyReLU)         (None, 256, 192, 64) 0           conv2d[0][0]                     
__________________________________________________________________________________________________
dropout (Dropout)               (None, 256, 192, 64) 0           leaky_re_lu[0][0]                
__________________________________________________________________________________________________
conv2d_1 (Conv2D)               (None, 256, 192, 64) 36928       dropout[0][0]                    
__________________________________________________________________________________________________
leaky_re_lu_1 (LeakyReLU)       (None, 256, 192, 64) 0           conv2d_1[0][0]                   
__________________________________________________________________________________________________
max_pooling2d (MaxPooling2D)    (None, 128, 96, 64)  0           leaky_re_lu_1[0][0]              
__________________________________________________________________________________________________
conv2d_2 (Conv2D)               (None, 128, 96, 128) 73856       max_pooling2d[0][0]              
__________________________________________________________________________________________________
leaky_re_lu_2 (LeakyReLU)       (None, 128, 96, 128) 0           conv2d_2[0][0]                   
__________________________________________________________________________________________________
dropout_1 (Dropout)             (None, 128, 96, 128) 0           leaky_re_lu_2[0][0]              
__________________________________________________________________________________________________
conv2d_3 (Conv2D)               (None, 128, 96, 128) 147584      dropout_1[0][0]                  
__________________________________________________________________________________________________
leaky_re_lu_3 (LeakyReLU)       (None, 128, 96, 128) 0           conv2d_3[0][0]                   
__________________________________________________________________________________________________
max_pooling2d_1 (MaxPooling2D)  (None, 64, 48, 128)  0           leaky_re_lu_3[0][0]              
__________________________________________________________________________________________________
conv2d_4 (Conv2D)               (None, 64, 48, 256)  295168      max_pooling2d_1[0][0]            
__________________________________________________________________________________________________
leaky_re_lu_5 (LeakyReLU)       (None, 64, 48, 256)  0           conv2d_4[0][0]                   
__________________________________________________________________________________________________
dropout_3 (Dropout)             (None, 64, 48, 256)  0           leaky_re_lu_5[0][0]              
__________________________________________________________________________________________________
conv2d_5 (Conv2D)               (None, 64, 48, 256)  590080      dropout_3[0][0]                  
__________________________________________________________________________________________________
leaky_re_lu_6 (LeakyReLU)       (None, 64, 48, 256)  0           conv2d_5[0][0]                   
__________________________________________________________________________________________________
max_pooling2d_2 (MaxPooling2D)  (None, 32, 24, 256)  0           leaky_re_lu_6[0][0]              
__________________________________________________________________________________________________
conv2d_6 (Conv2D)               (None, 32, 24, 512)  1180160     max_pooling2d_2[0][0]            
__________________________________________________________________________________________________
leaky_re_lu_8 (LeakyReLU)       (None, 32, 24, 512)  0           conv2d_6[0][0]                   
__________________________________________________________________________________________________
dropout_5 (Dropout)             (None, 32, 24, 512)  0           leaky_re_lu_8[0][0]              
__________________________________________________________________________________________________
conv2d_7 (Conv2D)               (None, 32, 24, 512)  2359808     dropout_5[0][0]                  
__________________________________________________________________________________________________
leaky_re_lu_9 (LeakyReLU)       (None, 32, 24, 512)  0           conv2d_7[0][0]                   
__________________________________________________________________________________________________
max_pooling2d_3 (MaxPooling2D)  (None, 16, 12, 512)  0           leaky_re_lu_9[0][0]              
__________________________________________________________________________________________________
flatten_2 (Flatten)             (None, 98304)        0           max_pooling2d_3[0][0]            
__________________________________________________________________________________________________
dense_4 (Dense)                 (None, 48)           4718640     flatten_2[0][0]                  
__________________________________________________________________________________________________
flatten_1 (Flatten)             (None, 196608)       0           max_pooling2d_2[0][0]            
__________________________________________________________________________________________________
batch_normalization_2 (BatchNor (None, 48)           192         dense_4[0][0]                    
__________________________________________________________________________________________________
dense_2 (Dense)                 (None, 96)           18874464    flatten_1[0][0]                  
__________________________________________________________________________________________________
leaky_re_lu_10 (LeakyReLU)      (None, 48)           0           batch_normalization_2[0][0]      
__________________________________________________________________________________________________
batch_normalization_1 (BatchNor (None, 96)           384         dense_2[0][0]                    
__________________________________________________________________________________________________
dropout_6 (Dropout)             (None, 48)           0           leaky_re_lu_10[0][0]             
__________________________________________________________________________________________________
leaky_re_lu_7 (LeakyReLU)       (None, 96)           0           batch_normalization_1[0][0]      
__________________________________________________________________________________________________
dense_5 (Dense)                 (None, 24)           1176        dropout_6[0][0]                  
__________________________________________________________________________________________________
dropout_4 (Dropout)             (None, 96)           0           leaky_re_lu_7[0][0]              
__________________________________________________________________________________________________
reshape_2 (Reshape)             (None, 24, 1)        0           dense_5[0][0]                    
__________________________________________________________________________________________________
dense_3 (Dense)                 (None, 48)           4656        dropout_4[0][0]                  
__________________________________________________________________________________________________
up_sampling1d (UpSampling1D)    (None, 48, 1)        0           reshape_2[0][0]                  
__________________________________________________________________________________________________
reshape_1 (Reshape)             (None, 48, 1)        0           dense_3[0][0]                    
WARNING:tensorflow:`period` argument is deprecated. Please use `save_freq` to specify the frequency in number of batches seen.
2022-06-29 09:47:20.317111: I tensorflow/compiler/mlir/mlir_graph_optimization_pass.cc:176] None of the MLIR Optimization Passes are enabled (registered 2)
2022-06-29 09:47:20.325360: I tensorflow/core/platform/profile_utils/cpu_utils.cc:114] CPU Frequency: 2000000000 Hz
…
2022-06-29 09:47:25.525962: I tensorflow/stream_executor/cuda/cuda_dnn.cc:359] Loaded cuDNN version 8101
2022-06-29 09:47:26.824134: I tensorflow/stream_executor/platform/default/dso_loader.cc:53] Successfully opened dynamic library libcublas.so.11
2022-06-29 09:47:27.510610: I tensorflow/stream_executor/platform/default/dso_loader.cc:53] Successfully opened dynamic library libcublasLt.so.11
2022-06-29 09:47:27.662821: I tensorflow/stream_executor/cuda/cuda_blas.cc:1838] TensorFloat-32 will be used for the matrix multiplication. This will only be logged once.
__________________________________________________________________________________________________
concatenate (Concatenate)       (None, 48, 2)        0           up_sampling1d[0][0]              
                                                                 reshape_1[0][0]                  
__________________________________________________________________________________________________
conv1d (Conv1D)                 (None, 48, 4)        28          concatenate[0][0]                
__________________________________________________________________________________________________
batch_normalization_3 (BatchNor (None, 48, 4)        16          conv1d[0][0]                     
__________________________________________________________________________________________________
leaky_re_lu_11 (LeakyReLU)      (None, 48, 4)        0           batch_normalization_3[0][0]      
__________________________________________________________________________________________________
conv1d_1 (Conv1D)               (None, 48, 2)        26          leaky_re_lu_11[0][0]             
__________________________________________________________________________________________________
batch_normalization_4 (BatchNor (None, 48, 2)        8           conv1d_1[0][0]                   
__________________________________________________________________________________________________
leaky_re_lu_12 (LeakyReLU)      (None, 48, 2)        0           batch_normalization_4[0][0]      
__________________________________________________________________________________________________
up_sampling1d_1 (UpSampling1D)  (None, 96, 2)        0           leaky_re_lu_12[0][0]             
__________________________________________________________________________________________________
conv1d_2 (Conv1D)               (None, 96, 4)        28          up_sampling1d_1[0][0]            
__________________________________________________________________________________________________
batch_normalization_5 (BatchNor (None, 96, 4)        16          conv1d_2[0][0]                   
__________________________________________________________________________________________________
leaky_re_lu_13 (LeakyReLU)      (None, 96, 4)        0           batch_normalization_5[0][0]      
__________________________________________________________________________________________________
conv1d_3 (Conv1D)               (None, 96, 2)        26          leaky_re_lu_13[0][0]             
__________________________________________________________________________________________________
batch_normalization_6 (BatchNor (None, 96, 2)        8           conv1d_3[0][0]                   
__________________________________________________________________________________________________
leaky_re_lu_14 (LeakyReLU)      (None, 96, 2)        0           batch_normalization_6[0][0]      
__________________________________________________________________________________________________
up_sampling1d_2 (UpSampling1D)  (None, 192, 2)       0           leaky_re_lu_14[0][0]             
__________________________________________________________________________________________________
conv1d_4 (Conv1D)               (None, 192, 4)       28          up_sampling1d_2[0][0]            
__________________________________________________________________________________________________
batch_normalization_7 (BatchNor (None, 192, 4)       16          conv1d_4[0][0]                   
__________________________________________________________________________________________________
leaky_re_lu_15 (LeakyReLU)      (None, 192, 4)       0           batch_normalization_7[0][0]      
__________________________________________________________________________________________________
conv1d_5 (Conv1D)               (None, 192, 2)       26          leaky_re_lu_15[0][0]             
__________________________________________________________________________________________________
batch_normalization_8 (BatchNor (None, 192, 2)       8           conv1d_5[0][0]                   
__________________________________________________________________________________________________
leaky_re_lu_16 (LeakyReLU)      (None, 192, 2)       0           batch_normalization_8[0][0]      
__________________________________________________________________________________________________
conv1d_6 (Conv1D)               (None, 192, 1)       3           leaky_re_lu_16[0][0]             
==================================================================================================
Total params: 28,283,973
Trainable params: 28,283,649
Non-trainable params: 324
__________________________________________________________________________________________________
Epoch 1/400
  1/350 [..............................] - ETA: 46:26 - loss: 0.
…
