…
2022-07-14 11:31:04.961041: I tensorflow/core/common_runtime/gpu/gpu_device.cc:1418] Created TensorFlow device (/job:localhost/replica:0/task:0/device:GPU:0 with 22318 MB memory) -> physical GPU (device: 0, name: NVIDIA GeForce RTX 3090, pci bus id: 0000:d1:00.0, compute capability: 8.6)
Model: "model"
__________________________________________________________________________________________________
Layer (type)                    Output Shape         Param #     Connected to                     
==================================================================================================
input_1 (InputLayer)            [(None, 256, 192, 1) 0                                            
__________________________________________________________________________________________________
conv2d (Conv2D)                 (None, 256, 192, 64) 640         input_1[0][0]                    
__________________________________________________________________________________________________
batch_normalization (BatchNorma (None, 256, 192, 64) 256         conv2d[0][0]                     
__________________________________________________________________________________________________
leaky_re_lu (LeakyReLU)         (None, 256, 192, 64) 0           batch_normalization[0][0]        
__________________________________________________________________________________________________
dropout (Dropout)               (None, 256, 192, 64) 0           leaky_re_lu[0][0]                
__________________________________________________________________________________________________
conv2d_1 (Conv2D)               (None, 256, 192, 64) 36928       dropout[0][0]                    
__________________________________________________________________________________________________
batch_normalization_1 (BatchNor (None, 256, 192, 64) 256         conv2d_1[0][0]                   
__________________________________________________________________________________________________
leaky_re_lu_1 (LeakyReLU)       (None, 256, 192, 64) 0           batch_normalization_1[0][0]      
__________________________________________________________________________________________________
max_pooling2d (MaxPooling2D)    (None, 128, 96, 64)  0           leaky_re_lu_1[0][0]              
__________________________________________________________________________________________________
conv2d_2 (Conv2D)               (None, 128, 96, 128) 73856       max_pooling2d[0][0]              
__________________________________________________________________________________________________
batch_normalization_2 (BatchNor (None, 128, 96, 128) 512         conv2d_2[0][0]                   
__________________________________________________________________________________________________
leaky_re_lu_2 (LeakyReLU)       (None, 128, 96, 128) 0           batch_normalization_2[0][0]      
__________________________________________________________________________________________________
dropout_1 (Dropout)             (None, 128, 96, 128) 0           leaky_re_lu_2[0][0]              
__________________________________________________________________________________________________
conv2d_3 (Conv2D)               (None, 128, 96, 128) 147584      dropout_1[0][0]                  
__________________________________________________________________________________________________
batch_normalization_3 (BatchNor (None, 128, 96, 128) 512         conv2d_3[0][0]                   
__________________________________________________________________________________________________
leaky_re_lu_3 (LeakyReLU)       (None, 128, 96, 128) 0           batch_normalization_3[0][0]      
__________________________________________________________________________________________________
max_pooling2d_1 (MaxPooling2D)  (None, 64, 48, 128)  0           leaky_re_lu_3[0][0]              
__________________________________________________________________________________________________
conv2d_4 (Conv2D)               (None, 64, 48, 256)  295168      max_pooling2d_1[0][0]            
__________________________________________________________________________________________________
batch_normalization_4 (BatchNor (None, 64, 48, 256)  1024        conv2d_4[0][0]                   
__________________________________________________________________________________________________
leaky_re_lu_4 (LeakyReLU)       (None, 64, 48, 256)  0           batch_normalization_4[0][0]      
__________________________________________________________________________________________________
dropout_2 (Dropout)             (None, 64, 48, 256)  0           leaky_re_lu_4[0][0]              
__________________________________________________________________________________________________
conv2d_5 (Conv2D)               (None, 64, 48, 256)  590080      dropout_2[0][0]                  
__________________________________________________________________________________________________
batch_normalization_5 (BatchNor (None, 64, 48, 256)  1024        conv2d_5[0][0]                   
__________________________________________________________________________________________________
leaky_re_lu_5 (LeakyReLU)       (None, 64, 48, 256)  0           batch_normalization_5[0][0]      
__________________________________________________________________________________________________
max_pooling2d_2 (MaxPooling2D)  (None, 32, 24, 256)  0           leaky_re_lu_5[0][0]              
__________________________________________________________________________________________________
conv2d_6 (Conv2D)               (None, 32, 24, 512)  1180160     max_pooling2d_2[0][0]            
__________________________________________________________________________________________________
batch_normalization_6 (BatchNor (None, 32, 24, 512)  2048        conv2d_6[0][0]                   
__________________________________________________________________________________________________
leaky_re_lu_6 (LeakyReLU)       (None, 32, 24, 512)  0           batch_normalization_6[0][0]      
__________________________________________________________________________________________________
dropout_3 (Dropout)             (None, 32, 24, 512)  0           leaky_re_lu_6[0][0]              
__________________________________________________________________________________________________
conv2d_7 (Conv2D)               (None, 32, 24, 512)  2359808     dropout_3[0][0]                  
__________________________________________________________________________________________________
batch_normalization_7 (BatchNor (None, 32, 24, 512)  2048        conv2d_7[0][0]                   
__________________________________________________________________________________________________
leaky_re_lu_7 (LeakyReLU)       (None, 32, 24, 512)  0           batch_normalization_7[0][0]      
__________________________________________________________________________________________________
max_pooling2d_3 (MaxPooling2D)  (None, 16, 12, 512)  0           leaky_re_lu_7[0][0]              
__________________________________________________________________________________________________
conv2d_8 (Conv2D)               (None, 16, 12, 1024) 4719616     max_pooling2d_3[0][0]            
__________________________________________________________________________________________________
batch_normalization_8 (BatchNor (None, 16, 12, 1024) 4096        conv2d_8[0][0]                   
__________________________________________________________________________________________________
leaky_re_lu_8 (LeakyReLU)       (None, 16, 12, 1024) 0           batch_normalization_8[0][0]      
__________________________________________________________________________________________________
dropout_4 (Dropout)             (None, 16, 12, 1024) 0           leaky_re_lu_8[0][0]              
__________________________________________________________________________________________________
conv2d_9 (Conv2D)               (None, 16, 12, 1024) 9438208     dropout_4[0][0]                  
__________________________________________________________________________________________________
batch_normalization_9 (BatchNor (None, 16, 12, 1024) 4096        conv2d_9[0][0]                   
__________________________________________________________________________________________________
leaky_re_lu_9 (LeakyReLU)       (None, 16, 12, 1024) 0           batch_normalization_9[0][0]      
__________________________________________________________________________________________________
flatten (Flatten)               (None, 196608)       0           leaky_re_lu_9[0][0]              
__________________________________________________________________________________________________
dense (Dense)                   (None, 12)           2359308     flatten[0][0]                    
__________________________________________________________________________________________________
batch_normalization_10 (BatchNo (None, 12)           48          dense[0][0]                      
__________________________________________________________________________________________________
leaky_re_lu_10 (LeakyReLU)      (None, 12)           0           batch_normalization_10[0][0]     
__________________________________________________________________________________________________
flatten_1 (Flatten)             (None, 393216)       0           leaky_re_lu_7[0][0]              
__________________________________________________________________________________________________
dropout_5 (Dropout)             (None, 12)           0           leaky_re_lu_10[0][0]             
__________________________________________________________________________________________________
dense_2 (Dense)                 (None, 24)           9437208     flatten_1[0][0]                  
__________________________________________________________________________________________________
dense_1 (Dense)                 (None, 192)          2496        dropout_5[0][0]                  
__________________________________________________________________________________________________
batch_normalization_12 (BatchNo (None, 24)           96          dense_2[0][0]                    
__________________________________________________________________________________________________
reshape (Reshape)               (None, 16, 12, 1)    0           dense_1[0][0]                    
__________________________________________________________________________________________________
leaky_re_lu_12 (LeakyReLU)      (None, 24)           0           batch_normalization_12[0][0]     
__________________________________________________________________________________________________
up_sampling2d (UpSampling2D)    (None, 32, 24, 1)    0           reshape[0][0]                    
__________________________________________________________________________________________________
dropout_6 (Dropout)             (None, 24)           0           leaky_re_lu_12[0][0]             
__________________________________________________________________________________________________
conv2d_10 (Conv2D)              (None, 32, 24, 512)  2560        up_sampling2d[0][0]              
__________________________________________________________________________________________________
dense_3 (Dense)                 (None, 768)          19200       dropout_6[0][0]                  
__________________________________________________________________________________________________
batch_normalization_11 (BatchNo (None, 32, 24, 512)  2048        conv2d_10[0][0]                  
__________________________________________________________________________________________________
reshape_1 (Reshape)             (None, 32, 24, 1)    0           dense_3[0][0]                    
__________________________________________________________________________________________________
leaky_re_lu_11 (LeakyReLU)      (None, 32, 24, 512)  0           batch_normalization_11[0][0]     
__________________________________________________________________________________________________
concatenate (Concatenate)       (None, 32, 24, 513)  0           reshape_1[0][0]                  
                                                                 leaky_re_lu_11[0][0]             
__________________________________________________________________________________________________
conv2d_11 (Conv2D)              (None, 32, 24, 512)  2364416     concatenate[0][0]                
__________________________________________________________________________________________________
batch_normalization_13 (BatchNo (None, 32, 24, 512)  2048        conv2d_11[0][0]                  
__________________________________________________________________________________________________
leaky_re_lu_13 (LeakyReLU)      (None, 32, 24, 512)  0           batch_normalization_13[0][0]     
__________________________________________________________________________________________________
dropout_7 (Dropout)             (None, 32, 24, 512)  0           leaky_re_lu_13[0][0]             
__________________________________________________________________________________________________
flatten_2 (Flatten)             (None, 786432)       0           leaky_re_lu_5[0][0]              
__________________________________________________________________________________________________
conv2d_12 (Conv2D)              (None, 32, 24, 512)  2359808     dropout_7[0][0]                  
__________________________________________________________________________________________________
dense_4 (Dense)                 (None, 48)           37748784    flatten_2[0][0]                  
__________________________________________________________________________________________________
batch_normalization_14 (BatchNo (None, 32, 24, 512)  2048        conv2d_12[0][0]                  
__________________________________________________________________________________________________
batch_normalization_16 (BatchNo (None, 48)           192         dense_4[0][0]                    
__________________________________________________________________________________________________
leaky_re_lu_14 (LeakyReLU)      (None, 32, 24, 512)  0           batch_normalization_14[0][0]     
__________________________________________________________________________________________________
leaky_re_lu_16 (LeakyReLU)      (None, 48)           0           batch_normalization_16[0][0]     
__________________________________________________________________________________________________
up_sampling2d_1 (UpSampling2D)  (None, 64, 48, 512)  0           leaky_re_lu_14[0][0]             
__________________________________________________________________________________________________
dropout_8 (Dropout)             (None, 48)           0           leaky_re_lu_16[0][0]             
__________________________________________________________________________________________________
conv2d_13 (Conv2D)              (None, 64, 48, 256)  524544      up_sampling2d_1[0][0]            
__________________________________________________________________________________________________
dense_5 (Dense)                 (None, 3072)         150528      dropout_8[0][0]                  
__________________________________________________________________________________________________
batch_normalization_15 (BatchNo (None, 64, 48, 256)  1024        conv2d_13[0][0]                  
__________________________________________________________________________________________________
reshape_2 (Reshape)             (None, 64, 48, 1)    0           dense_5[0][0]                    
__________________________________________________________________________________________________
leaky_re_lu_15 (LeakyReLU)      (None, 64, 48, 256)  0           batch_normalization_15[0][0]     
__________________________________________________________________________________________________
concatenate_1 (Concatenate)     (None, 64, 48, 257)  0           reshape_2[0][0]                  
                                                                 leaky_re_lu_15[0][0]             
__________________________________________________________________________________________________
conv2d_14 (Conv2D)              (None, 64, 48, 256)  592384      concatenate_1[0][0]              
__________________________________________________________________________________________________
batch_normalization_17 (BatchNo (None, 64, 48, 256)  1024        conv2d_14[0][0]                  
2022-07-14 11:31:11.258155: I tensorflow/compiler/mlir/mlir_graph_optimization_pass.cc:176] None of the MLIR Optimization Passes are enabled (registered 2)
2022-07-14 11:31:11.263935: I tensorflow/core/platform/profile_utils/cpu_utils.cc:114] CPU Frequency: 2000000000 Hz
2022-07-14 11:31:14.947377: I tensorflow/stream_executor/platform/default/dso_loader.cc:53] Successfully opened dynamic library libcudnn.so.8
2022-07-14 11:31:15.886706: I tensorflow/stream_executor/cuda/cuda_dnn.cc:359] Loaded cuDNN version 8101
2022-07-14 11:31:17.036703: I tensorflow/stream_executor/platform/default/dso_loader.cc:53] Successfully opened dynamic library libcublas.so.11
2022-07-14 11:31:17.859064: I tensorflow/stream_executor/platform/default/dso_loader.cc:53] Successfully opened dynamic library libcublasLt.so.11
2022-07-14 11:31:18.118273: I tensorflow/stream_executor/cuda/cuda_blas.cc:1838] TensorFloat-32 will be used for the matrix multiplication. This will only be logged once.
__________________________________________________________________________________________________
leaky_re_lu_17 (LeakyReLU)      (None, 64, 48, 256)  0           batch_normalization_17[0][0]     
__________________________________________________________________________________________________
dropout_9 (Dropout)             (None, 64, 48, 256)  0           leaky_re_lu_17[0][0]             
__________________________________________________________________________________________________
conv2d_15 (Conv2D)              (None, 64, 48, 256)  590080      dropout_9[0][0]                  
__________________________________________________________________________________________________
batch_normalization_18 (BatchNo (None, 64, 48, 256)  1024        conv2d_15[0][0]                  
__________________________________________________________________________________________________
leaky_re_lu_18 (LeakyReLU)      (None, 64, 48, 256)  0           batch_normalization_18[0][0]     
__________________________________________________________________________________________________
up_sampling2d_2 (UpSampling2D)  (None, 128, 96, 256) 0           leaky_re_lu_18[0][0]             
__________________________________________________________________________________________________
conv2d_16 (Conv2D)              (None, 128, 96, 128) 131200      up_sampling2d_2[0][0]            
__________________________________________________________________________________________________
batch_normalization_19 (BatchNo (None, 128, 96, 128) 512         conv2d_16[0][0]                  
__________________________________________________________________________________________________
leaky_re_lu_19 (LeakyReLU)      (None, 128, 96, 128) 0           batch_normalization_19[0][0]     
__________________________________________________________________________________________________
conv2d_17 (Conv2D)              (None, 128, 96, 128) 147584      leaky_re_lu_19[0][0]             
__________________________________________________________________________________________________
batch_normalization_20 (BatchNo (None, 128, 96, 128) 512         conv2d_17[0][0]                  
__________________________________________________________________________________________________
leaky_re_lu_20 (LeakyReLU)      (None, 128, 96, 128) 0           batch_normalization_20[0][0]     
__________________________________________________________________________________________________
dropout_10 (Dropout)            (None, 128, 96, 128) 0           leaky_re_lu_20[0][0]             
__________________________________________________________________________________________________
conv2d_18 (Conv2D)              (None, 128, 96, 128) 147584      dropout_10[0][0]                 
__________________________________________________________________________________________________
batch_normalization_21 (BatchNo (None, 128, 96, 128) 512         conv2d_18[0][0]                  
__________________________________________________________________________________________________
leaky_re_lu_21 (LeakyReLU)      (None, 128, 96, 128) 0           batch_normalization_21[0][0]     
__________________________________________________________________________________________________
up_sampling2d_3 (UpSampling2D)  (None, 256, 192, 128 0           leaky_re_lu_21[0][0]             
__________________________________________________________________________________________________
conv2d_19 (Conv2D)              (None, 256, 192, 64) 32832       up_sampling2d_3[0][0]            
__________________________________________________________________________________________________
batch_normalization_22 (BatchNo (None, 256, 192, 64) 256         conv2d_19[0][0]                  
__________________________________________________________________________________________________
leaky_re_lu_22 (LeakyReLU)      (None, 256, 192, 64) 0           batch_normalization_22[0][0]     
__________________________________________________________________________________________________
conv2d_20 (Conv2D)              (None, 256, 192, 64) 36928       leaky_re_lu_22[0][0]             
__________________________________________________________________________________________________
batch_normalization_23 (BatchNo (None, 256, 192, 64) 256         conv2d_20[0][0]                  
__________________________________________________________________________________________________
leaky_re_lu_23 (LeakyReLU)      (None, 256, 192, 64) 0           batch_normalization_23[0][0]     
__________________________________________________________________________________________________
dropout_11 (Dropout)            (None, 256, 192, 64) 0           leaky_re_lu_23[0][0]             
__________________________________________________________________________________________________
conv2d_21 (Conv2D)              (None, 256, 192, 64) 36928       dropout_11[0][0]                 
__________________________________________________________________________________________________
batch_normalization_24 (BatchNo (None, 256, 192, 64) 256         conv2d_21[0][0]                  
__________________________________________________________________________________________________
leaky_re_lu_24 (LeakyReLU)      (None, 256, 192, 64) 0           batch_normalization_24[0][0]     
__________________________________________________________________________________________________
conv2d_22 (Conv2D)              (None, 256, 192, 1)  65          leaky_re_lu_24[0][0]             
==================================================================================================
Total params: 75,554,213
Trainable params: 75,540,349
Non-trainable params: 13,864
__________________________________________________________________________________________________
Epoch 1/400
  1/234 [..............................] - ETA: 31:37 - loss: 
…
