…
2022-07-15 14:29:08.108421: I tensorflow/core/common_runtime/gpu/gpu_device.cc:1418] Created TensorFlow device (/job:localhost/replica:0/task:0/device:GPU:0 with 22318 MB memory) -> physical GPU (device: 0, name: NVIDIA GeForce RTX 3090, pci bus id: 0000:4f:00.0, compute capability: 8.6)
Model: "model"
__________________________________________________________________________________________________
Layer (type)                    Output Shape         Param #     Connected to                     
==================================================================================================
input_1 (InputLayer)            [(None, 256, 192, 1) 0                                            
__________________________________________________________________________________________________
conv2d (Conv2D)                 (None, 256, 192, 64) 640         input_1[0][0]                    
__________________________________________________________________________________________________
batch_normalization (BatchNorma (None, 256, 192, 64) 256         conv2d[0][0]                     
__________________________________________________________________________________________________
leaky_re_lu (LeakyReLU)         (None, 256, 192, 64) 0           batch_normalization[0][0]        
__________________________________________________________________________________________________
dropout (Dropout)               (None, 256, 192, 64) 0           leaky_re_lu[0][0]                
__________________________________________________________________________________________________
conv2d_1 (Conv2D)               (None, 256, 192, 64) 36928       dropout[0][0]                    
__________________________________________________________________________________________________
batch_normalization_1 (BatchNor (None, 256, 192, 64) 256         conv2d_1[0][0]                   
__________________________________________________________________________________________________
leaky_re_lu_1 (LeakyReLU)       (None, 256, 192, 64) 0           batch_normalization_1[0][0]      
__________________________________________________________________________________________________
max_pooling2d (MaxPooling2D)    (None, 128, 96, 64)  0           leaky_re_lu_1[0][0]              
__________________________________________________________________________________________________
conv2d_2 (Conv2D)               (None, 128, 96, 128) 73856       max_pooling2d[0][0]              
__________________________________________________________________________________________________
batch_normalization_2 (BatchNor (None, 128, 96, 128) 512         conv2d_2[0][0]                   
__________________________________________________________________________________________________
leaky_re_lu_2 (LeakyReLU)       (None, 128, 96, 128) 0           batch_normalization_2[0][0]      
__________________________________________________________________________________________________
dropout_1 (Dropout)             (None, 128, 96, 128) 0           leaky_re_lu_2[0][0]              
__________________________________________________________________________________________________
conv2d_3 (Conv2D)               (None, 128, 96, 128) 147584      dropout_1[0][0]                  
__________________________________________________________________________________________________
batch_normalization_3 (BatchNor (None, 128, 96, 128) 512         conv2d_3[0][0]                   
__________________________________________________________________________________________________
leaky_re_lu_3 (LeakyReLU)       (None, 128, 96, 128) 0           batch_normalization_3[0][0]      
__________________________________________________________________________________________________
max_pooling2d_1 (MaxPooling2D)  (None, 64, 48, 128)  0           leaky_re_lu_3[0][0]              
__________________________________________________________________________________________________
conv2d_4 (Conv2D)               (None, 64, 48, 256)  295168      max_pooling2d_1[0][0]            
__________________________________________________________________________________________________
batch_normalization_4 (BatchNor (None, 64, 48, 256)  1024        conv2d_4[0][0]                   
__________________________________________________________________________________________________
leaky_re_lu_4 (LeakyReLU)       (None, 64, 48, 256)  0           batch_normalization_4[0][0]      
__________________________________________________________________________________________________
dropout_2 (Dropout)             (None, 64, 48, 256)  0           leaky_re_lu_4[0][0]              
__________________________________________________________________________________________________
conv2d_5 (Conv2D)               (None, 64, 48, 256)  590080      dropout_2[0][0]                  
__________________________________________________________________________________________________
batch_normalization_5 (BatchNor (None, 64, 48, 256)  1024        conv2d_5[0][0]                   
__________________________________________________________________________________________________
leaky_re_lu_5 (LeakyReLU)       (None, 64, 48, 256)  0           batch_normalization_5[0][0]      
__________________________________________________________________________________________________
max_pooling2d_2 (MaxPooling2D)  (None, 32, 24, 256)  0           leaky_re_lu_5[0][0]              
__________________________________________________________________________________________________
conv2d_6 (Conv2D)               (None, 32, 24, 512)  1180160     max_pooling2d_2[0][0]            
__________________________________________________________________________________________________
batch_normalization_6 (BatchNor (None, 32, 24, 512)  2048        conv2d_6[0][0]                   
__________________________________________________________________________________________________
leaky_re_lu_6 (LeakyReLU)       (None, 32, 24, 512)  0           batch_normalization_6[0][0]      
__________________________________________________________________________________________________
dropout_3 (Dropout)             (None, 32, 24, 512)  0           leaky_re_lu_6[0][0]              
__________________________________________________________________________________________________
conv2d_7 (Conv2D)               (None, 32, 24, 512)  2359808     dropout_3[0][0]                  
__________________________________________________________________________________________________
batch_normalization_7 (BatchNor (None, 32, 24, 512)  2048        conv2d_7[0][0]                   
__________________________________________________________________________________________________
leaky_re_lu_7 (LeakyReLU)       (None, 32, 24, 512)  0           batch_normalization_7[0][0]      
__________________________________________________________________________________________________
max_pooling2d_3 (MaxPooling2D)  (None, 16, 12, 512)  0           leaky_re_lu_7[0][0]              
__________________________________________________________________________________________________
conv2d_8 (Conv2D)               (None, 16, 12, 1024) 4719616     max_pooling2d_3[0][0]            
__________________________________________________________________________________________________
batch_normalization_8 (BatchNor (None, 16, 12, 1024) 4096        conv2d_8[0][0]                   
__________________________________________________________________________________________________
leaky_re_lu_8 (LeakyReLU)       (None, 16, 12, 1024) 0           batch_normalization_8[0][0]      
__________________________________________________________________________________________________
dropout_4 (Dropout)             (None, 16, 12, 1024) 0           leaky_re_lu_8[0][0]              
__________________________________________________________________________________________________
conv2d_9 (Conv2D)               (None, 16, 12, 1024) 9438208     dropout_4[0][0]                  
__________________________________________________________________________________________________
batch_normalization_9 (BatchNor (None, 16, 12, 1024) 4096        conv2d_9[0][0]                   
__________________________________________________________________________________________________
leaky_re_lu_9 (LeakyReLU)       (None, 16, 12, 1024) 0           batch_normalization_9[0][0]      
2022-07-15 14:29:13.693597: I tensorflow/compiler/mlir/mlir_graph_optimization_pass.cc:176] None of the MLIR Optimization Passes are enabled (registered 2)
2022-07-15 14:29:13.699714: I tensorflow/core/platform/profile_utils/cpu_utils.cc:114] CPU Frequency: 2000000000 Hz
2022-07-15 14:29:16.263702: I tensorflow/stream_executor/platform/default/dso_loader.cc:53] Successfully opened dynamic library libcudnn.so.8
2022-07-15 14:29:17.356584: I tensorflow/stream_executor/cuda/cuda_dnn.cc:359] Loaded cuDNN version 8101
2022-07-15 14:29:18.579413: I tensorflow/stream_executor/platform/default/dso_loader.cc:53] Successfully opened dynamic library libcublas.so.11
2022-07-15 14:29:19.544932: I tensorflow/stream_executor/platform/default/dso_loader.cc:53] Successfully opened dynamic library libcublasLt.so.11
2022-07-15 14:29:20.150660: I tensorflow/stream_executor/cuda/cuda_blas.cc:1838] TensorFloat-32 will be used for the matrix multiplication. This will only be logged once.
__________________________________________________________________________________________________
flatten (Flatten)               (None, 196608)       0           leaky_re_lu_9[0][0]              
__________________________________________________________________________________________________
flatten_1 (Flatten)             (None, 393216)       0           leaky_re_lu_7[0][0]              
__________________________________________________________________________________________________
dense (Dense)                   (None, 32)           6291488     flatten[0][0]                    
__________________________________________________________________________________________________
dense_1 (Dense)                 (None, 128)          50331776    flatten_1[0][0]                  
__________________________________________________________________________________________________
batch_normalization_10 (BatchNo (None, 32)           128         dense[0][0]                      
__________________________________________________________________________________________________
batch_normalization_11 (BatchNo (None, 128)          512         dense_1[0][0]                    
__________________________________________________________________________________________________
leaky_re_lu_10 (LeakyReLU)      (None, 32)           0           batch_normalization_10[0][0]     
__________________________________________________________________________________________________
leaky_re_lu_11 (LeakyReLU)      (None, 128)          0           batch_normalization_11[0][0]     
__________________________________________________________________________________________________
dropout_5 (Dropout)             (None, 32)           0           leaky_re_lu_10[0][0]             
__________________________________________________________________________________________________
dropout_6 (Dropout)             (None, 128)          0           leaky_re_lu_11[0][0]             
__________________________________________________________________________________________________
concatenate (Concatenate)       (None, 160)          0           dropout_5[0][0]                  
                                                                 dropout_6[0][0]                  
__________________________________________________________________________________________________
dense_2 (Dense)                 (None, 640)          103040      concatenate[0][0]                
__________________________________________________________________________________________________
batch_normalization_12 (BatchNo (None, 640)          2560        dense_2[0][0]                    
__________________________________________________________________________________________________
leaky_re_lu_12 (LeakyReLU)      (None, 640)          0           batch_normalization_12[0][0]     
__________________________________________________________________________________________________
dense_3 (Dense)                 (None, 320)          205120      leaky_re_lu_12[0][0]             
__________________________________________________________________________________________________
batch_normalization_13 (BatchNo (None, 320)          1280        dense_3[0][0]                    
__________________________________________________________________________________________________
leaky_re_lu_13 (LeakyReLU)      (None, 320)          0           batch_normalization_13[0][0]     
__________________________________________________________________________________________________
dense_4 (Dense)                 (None, 1)            321         leaky_re_lu_13[0][0]             
==================================================================================================
Total params: 75,794,145
Trainable params: 56,941,921
Non-trainable params: 18,852,224
__________________________________________________________________________________________________
Epoch 1/400
 1/88 [..............................] - ETA: 10:27 - loss:
…
